last_brain.pth (torch, 8226 bytes, 12 tensors)

fc1.weight f4 [30, 5]
0	0xbf25a55d	-0.6470545
1	0x3ef1ff69	0.47265175
2	0xbdd2076c	-0.10255322
3	0xbf180de0	-0.5939617
4	0x3f571ff0	0.8403311
5	0x3e5eca10	0.21756768
6	0x3f188368	0.5957551
7	0xbe115780	-0.14193535
8	0xbdd694f9	-0.10477633
9	0x3ea32974	0.31867564
10	0x3f0c69cf	0.5484895
11	0xbe73a94e	-0.23795053
12	0x3e3acadf	0.18241452
13	0x3f7142ba	0.9424244
14	0xbf4e5276	-0.80594575
15	0x3f071451	0.52765375
16	0x3eedd2ca	0.46449882
17	0x3ec289bc	0.37995708
18	0xbe9844ad	-0.29739895
19	0xbcf62e40	-0.03005135
20	0xbe725625	-0.23665674
21	0x3e960761	0.29302505
22	0x3ef1702f	0.47155902
23	0xbe96b84f	-0.2943749
24	0xb9a2213d	-0.00030923812
25	0xbdd1e8cc	-0.102494806
26	0x3e3980f1	0.18115593
27	0xbea19032	-0.31555325
28	0xbd453c66	-0.048153304
29	0x3da8f61f	0.08250069
30	0xbebc82ce	-0.36818546
31	0x3b37e480	0.002805978
32	0x3d744610	0.05963713
33	0xbe0a7264	-0.13520199
34	0xbc076e00	-0.008265972
35	0x3e9da2d0	0.3078828
36	0x3f2607b6	0.64855516
37	0x3f16c3f0	0.58892727
38	0xbeb7a306	-0.35866565
39	0x3d6b861a	0.057500936
40	0x3f05a92b	0.52211255
41	0x3e39251f	0.18080567
42	0x3f11533d	0.56767637
43	0x3e90315a	0.28162652
44	0x3d57502c	0.052566692
45	0x3dd104e9	0.10206015
46	0xbdf38fdd	-0.11892674
47	0xbf742bb7	-0.95379204
48	0x3f0a2a68	0.53970957
49	0xbebd0426	-0.36917228
50	0x3e856f0c	0.26061285
51	0x3ca06b9f	0.019582568
52	0x3cf86b25	0.030324528
53	0xbe5c4f6b	-0.2151467
54	0x3eb0e57e	0.3455009
55	0x3e8d9639	0.27653673
56	0xbd3c84d1	-0.0460251
57	0x3f03b6ba	0.51450694
58	0x3eeba731	0.46025994
59	0xbf4b27df	-0.79357713
60	0xbd96bf96	-0.07360761
61	0xbe63f1a7	-0.22260152
62	0x3daf6a55	0.08565203
63	0x3f5e29f2	0.86782753
64	0xbf837f6d	-1.0273262
65	0x3de8bce1	0.11364151
66	0x3f5adf11	0.8549662
67	0xbf4d295a	-0.8014122
68	0x3eed9e15	0.4640967
69	0xbe27b0cc	-0.16376036
70	0x3d16e266	0.036837004
71	0x3ee9a0eb	0.45630583
72	0xbe18adc5	-0.14910038
73	0xbfa3ffa3	-1.2812389
74	0x3fa4a1f4	1.2861924
75	0x3eb5e8f4	0.35529292
76	0xbdba00ac	-0.090821594
77	0xbe8594d4	-0.2609011
78	0x3dd8c960	0.10585284
79	0x3d5a1910	0.053246558
80	0xbf80aef1	-1.0053388
81	0xbd2c5152	-0.04206974
82	0x3ea9b1fb	0.331436
83	0x3db7aac4	0.08968118
84	0x3ea1e986	0.31623477
85	0x3efd8d58	0.495219
86	0xbe164029	-0.14672913
87	0x3ef73b5c	0.48287475
88	0xbe0db930	-0.13840175
89	0x3c8c9f68	0.017165855
90	0x3f405eb9	0.75144535
91	0xbe3045bd	-0.17214103
92	0x3d0f12ad	0.03492992
93	0x3ed7326f	0.42030665
94	0xbf5a4343	-0.85258883
95	0x3cbbb9f0	0.02291581
96	0xbe0e77b2	-0.13912848
97	0xbea6cb41	-0.32576945
98	0xbe8d41fe	-0.2758941
99	0xbeabecd7	-0.33579132
100	0x3e549848	0.20761216
101	0x3f20d128	0.6281915
102	0xbf6357fe	-0.8880614
103	0xbf7c2a40	-0.9850197
104	0x3ede3589	0.4340022
105	0xbf207a2d	-0.62686425
106	0xbf5b6359	-0.8569847
107	0xbd4f0324	-0.050540105
108	0xbf163ee2	-0.586897
109	0x3fae6395	1.362414
110	0xbe4824b4	-0.19545251
111	0x3d336638	0.043798655
112	0xbede9ef7	-0.43480656
113	0xbe198a8a	-0.14994255
114	0x3e28282c	0.16421574
115	0x3e849929	0.25898102
116	0x3e67d3c1	0.22639371
117	0xbf128a49	-0.57242256
118	0xbf901b6e	-1.1258371
119	0x3f904554	1.1271157
120	0x3f10ff1e	0.5663928
121	0x3ec3a7d4	0.3821398
122	0x3eb396b8	0.35075927
123	0x3e38fcfc	0.18065256
124	0xbdf2d060	-0.118561506
125	0x3ef93ba4	0.48678315
126	0xbf2aa656	-0.6666006
127	0x3f78b0ab	0.97144574
128	0x3e8d1c99	0.2756088
129	0x3eda0b3d	0.425867
130	0x3f21b923	0.6317312
131	0x3e72a24a	0.23694721
132	0xbe0585cc	-0.1303932
133	0xbe9d64ab	-0.30740866
134	0xbd682565	-0.056676287
135	0x3eb776e2	0.35832888
136	0xbe93742e	-0.28799576
137	0x3f325065	0.6965392
138	0x3f133c51	0.5751391
139	0xbf7b8333	-0.9824707
140	0x3e7775b7	0.24165998
141	0x3f38ec96	0.72236
142	0xbe6433c1	-0.22285368
143	0x3f015bf5	0.5053094
144	0xba80590e	-0.0009792165
145	0xbf1261ac	-0.57180285
146	0x3f3ec9ce	0.7452668
147	0xbe9189dc	-0.2842549
148	0xbf623ba7	-0.8837227
149	0x3fa6315f	1.2983817

fc1.bias f4 [30]
0	0xbe55a920	-0.20865297
1	0x3f1811f9	0.59402424
2	0xbdc80c54	-0.097679764
3	0x3ef3eaab	0.47639975
4	0x3ed4ef0b	0.41588625
5	0xbec6af78	-0.38805747
6	0xbe5dcbb4	-0.21659738
7	0x3edfb6de	0.43694204
8	0x3e8281c4	0.25489628
9	0x3ed7ee0e	0.4217381
10	0xbf25f81a	-0.648317
11	0xbdae9ab2	-0.085255995
12	0x3dae6259	0.08514852
13	0x3e1a3a7c	0.15061373
14	0xbe019917	-0.12656055
15	0xbed5fe08	-0.41795373
16	0x3e82aa55	0.25520578
17	0x3eb50a0d	0.3535923
18	0x3d95a884	0.073075324
19	0xbd9cdb5c	-0.07659027
20	0x3f320b7c	0.69548774
21	0x3f501a08	0.8128972
22	0xbec06379	-0.37575892
23	0x3e69ec3a	0.2284402
24	0x3ed8dc83	0.42355737
25	0x3eb38e28	0.35069394
26	0x3ed1db0e	0.40987438
27	0xbe3bc131	-0.18335415
28	0xbf2ee4a8	-0.6831765
29	0xbe8dddcf	-0.2770829

fc2.weight f4 [3, 30]
0	0xbe983a0a	-0.2973178
1	0xbe96810a	-0.29395324
2	0xbeddf3b2	-0.43349987
3	0xbe93ad52	-0.2884317
4	0xbe858fa2	-0.26086146
5	0x3df1a624	0.11799267
6	0xbc88ae90	-0.0166848
7	0xbe217b8c	-0.15769786
8	0xbe6622a9	-0.2247416
9	0x3f8e40a9	1.1113483
10	0x3e3c1087	0.1836568
11	0xbebb3daa	-0.36570483
12	0xbf6d77c5	-0.9276088
13	0x3e8cec59	0.2752407
14	0xbf1b25e0	-0.6060467
15	0x3e28d654	0.1648801
16	0xbd9b9d6b	-0.075983845
17	0xbd75fbf9	-0.060054753
18	0xbeea7fd9	-0.45800665
19	0x3dcdca24	0.10048321
20	0x3f26d8c6	0.6517452
21	0x3f7e6cfe	0.9938506
22	0xbdc0bf66	-0.09411506
23	0xbf417a86	-0.7557758
24	0xbeb25a1e	-0.3483438
25	0x3f1bd664	0.6087401
26	0xbe41d907	-0.18930446
27	0xbe9ee7eb	-0.31036314
28	0xbcaea3af	-0.021318285
29	0xbf5e1198	-0.86745596
30	0xbf83d39b	-1.0298952
31	0xbe4b9d3f	-0.19884203
32	0xbecf031d	-0.40432063
33	0xbd1d5e8f	-0.038420256
34	0xbe363232	-0.17792585
35	0x3e1ea7b4	0.15493661
36	0x3e0d8658	0.1382078
37	0xbe9f0181	-0.31055835
38	0xbeb38750	-0.35064173
39	0x3f2bcd38	0.67110014
40	0xbf096d88	-0.53682756
41	0xbda0a4c3	-0.07843926
42	0xbf327c4a	-0.697209
43	0xbf768d22	-0.963091
44	0xbf3d02a4	-0.73832154
45	0x3e284c42	0.1643534
46	0x3e900cc3	0.28134736
47	0x3d54a6b3	0.05191679
48	0xbeeb474d	-0.45952836
49	0xbc8bebd0	-0.017080218
50	0x3f5f2545	0.87166244
51	0x3f3e8195	0.74416476
52	0xbdee24b7	-0.116280966
53	0xbc2cd667	-0.010549164
54	0xbeb3b6e5	-0.35100475
55	0x3f34118d	0.7033928
56	0xbebc9ce0	-0.36838436
57	0x3db78bfe	0.08962248
58	0xbf786acb	-0.97037953
59	0xbf822de5	-1.0170256
60	0xbe459266	-0.19294128
61	0xbe6a9c2a	-0.22911134
62	0xbeec2330	-0.46120596
63	0xbe371bcc	-0.17881697
64	0x3b3abcad	0.0028493807
65	0x3d2d2be0	0.04227817
66	0x3d081b70	0.03322929
67	0xbeb9699b	-0.36213383
68	0xbda3ea68	-0.08003694
69	0x3ee2da35	0.44307104
70	0xbd39a6e1	-0.045325164
71	0xbe91ee64	-0.2850219
72	0xbf06a9ca	-0.5260283
73	0x3ee435d5	0.4457232
74	0xbf2a5f0e	-0.6655129
75	0x3db5baac	0.088734955
76	0x3f1d9460	0.6155453
77	0x3d2a546e	0.041584425
78	0xbeb13baa	-0.34615833
79	0xbe0aa82d	-0.13540716
80	0x3f74dc01	0.956482
81	0x3f5148c5	0.8175166
82	0xbe32065f	-0.17385243
83	0xbfb796b9	-1.4342872
84	0xbe833fde	-0.25634664
85	0xbd852a97	-0.06502264
86	0xbe807f65	-0.25097194
87	0xbf12ec02	-0.5739137
88	0x3edea4ac	0.4348501
89	0xbee43d0f	-0.44577834

fc2.bias f4 [3]
0	0x3c2c41b0	0.010513708
1	0xbe40b15b	-0.18817656
2	0x3dea6c4c	0.11446437

exp_avg f4 [30, 5]
0	0x3b40069c	0.0029300814
1	0x3b0939de	0.0020939033
2	0x3b02c811	0.0019955675
3	0xbb7b524d	-0.0038348616
4	0x3b7b524d	0.0038348616
5	0x3aed442d	0.0018101983
6	0x3b05b4b9	0.0020401909
7	0x3b0b4918	0.0021253284
8	0xbaf5d95f	-0.0018756798
9	0x3af5d95f	0.0018756798
10	0x3aa30835	0.0012438359
11	0x39d4e69f	0.00040607617
12	0x3aa4e785	0.0012581205
13	0xba5d6c3d	-0.000844661
14	0x3a5d6c3d	0.000844661
15	0x3ab42350	0.0013743434
16	0x3ae52784	0.001748309
17	0x3acb5802	0.0015513899
18	0xba8d5f35	-0.001078582
19	0x3a8d5f35	0.001078582
20	0x3a94cc76	0.0011352438
21	0x3a5be285	0.0008387941
22	0x3a8bfb2a	0.0010679711
23	0xbac5f90d	-0.001510413
24	0x3ac5f90d	0.001510413
25	0x00000000	0.0
26	0x00000004	6e-45
27	0x00000000	0.0
28	0x80000004	-6e-45
29	0x00000004	6e-45
30	0x00000000	0.0
31	0x00000000	0.0
32	0x00000000	0.0
33	0x00000000	0.0
34	0x00000000	0.0
35	0x3afac55b	0.0019132303
36	0x3b15569b	0.0022787217
37	0x3b27f438	0.0025627743
38	0xbb0c6f14	-0.0021428512
39	0x3b0c6f14	0.0021428512
40	0x3aca324b	0.0015426365
41	0x3a97a0db	0.0011568324
42	0x3addc1b2	0.0016918688
43	0xbb151a24	-0.0022751177
44	0x3b151a24	0.0022751177
45	0xb9908901	-0.00027567896
46	0x3ab2bced	0.0013636627
47	0x3acb5366	0.0015512526
48	0x3a8e1344	0.0010839482
49	0xba8e1344	-0.0010839482
50	0xb8f8443a	-0.0001183827
51	0xb955acd4	-0.00020377646
52	0xb98a1c52	-0.0002634251
53	0x393ac370	0.00017811148
54	0xb93ac370	-0.00017811148
55	0x3a819cc9	0.0009888645
56	0x3aa2c6d9	0.001241888
57	0x3ab2ea57	0.0013650161
58	0xb9315d1b	-0.0001691472
59	0x39315d1b	0.0001691472
60	0x39fd47f2	0.00048309524
61	0x3a20ec3e	0.00061387185
62	0x3a9cb22d	0.0011954956
63	0xba93aa09	-0.0011265884
64	0x3a93aa09	0.0011265884
65	0xb8385a10	-4.3952896e-05
66	0xbb34b0c7	-0.0027571188
67	0xbb56cb8d	-0.0032775134
68	0xbb661341	-0.003510669
69	0x3b661341	0.003510669
70	0x3b939429	0.004503746
71	0x3bbfc75f	0.0058526243
72	0x3bb516ab	0.005526384
73	0xbb8da2a2	-0.004322366
74	0x3b8da2a2	0.004322366
75	0x00000000	0.0
76	0x00000000	0.0
77	0x00000000	0.0
78	0x00000000	0.0
79	0x00000000	0.0
80	0x39935b50	0.00028106058
81	0xbb18f243	-0.0023337759
82	0xba534d21	-0.00080605043
83	0x3a767ce9	0.00094027683
84	0xba767ce9	-0.00094027683
85	0xb6104402	-2.1497258e-06
86	0xb73a0fcf	-1.1090145e-05
87	0xb8f11e3b	-0.000114974064
88	0x38e32419	0.00010830927
89	0xb8e32419	-0.00010830927
90	0x3ab955ee	0.0014139989
91	0x3acc6371	0.0015593601
92	0x3b315e92	0.0027064425
93	0xba8f1954	-0.0010917583
94	0x3a8f1954	0.0010917583
95	0x00000000	0.0
96	0x00000000	0.0
97	0x00000000	0.0
98	0x00000000	0.0
99	0x00000000	0.0
100	0xbbb944eb	-0.0056539676
101	0xbbf0c63a	-0.007347849
102	0xbbcccaae	-0.0062497472
103	0x3bb85f21	0.0056265746
104	0xbbb85f21	-0.0056265746
105	0xbb83fee2	-0.004028187
106	0xbba9e148	-0.0051843263
107	0xbb8b1e77	-0.004245575
108	0x3bb3c4ad	0.005486092
109	0xbbb3c4ad	-0.005486092
110	0x00000000	0.0
111	0x00000000	0.0
112	0x00000000	0.0
113	0x00000000	0.0
114	0x00000000	0.0
115	0x3b5eab06	0.003397645
116	0x3c035264	0.008015249
117	0x3b92b733	0.0044774055
118	0xbb13a6fe	-0.0022529955
119	0x3b13a6fe	0.0022529955
120	0x3b187142	0.0023260866
121	0x3b1b17bd	0.0023665272
122	0x3b31b3fa	0.002711533
123	0xbb334fa4	-0.0027360702
124	0x3b334fa4	0.0027360702
125	0xbb433ab1	-0.0029789621
126	0xbac56c5c	-0.0015062201
127	0xbb3ab024	-0.0028486336
128	0x3b9ac514	0.0047232006
129	0xbb9ac514	-0.0047232006
130	0x3af42544	0.0018626829
131	0x3af42750	0.0018627439
132	0x3b187118	0.0023260769
133	0xbb1d8c23	-0.0024039827
134	0x3b1d8c23	0.0024039827
135	0x3ac1f05a	0.0014796362
136	0x3b254c8e	0.0025222632
137	0x3b01b4d1	0.0019791613
138	0xb6e6ce11	-6.8785234e-06
139	0x36e6ce11	6.8785234e-06
140	0xbac9b879	-0.001539006
141	0xbb30bb7b	-0.0026967216
142	0xbb0bbf37	-0.002132369
143	0xba86dbc9	-0.001028889
144	0x3a86dbc9	0.001028889
145	0x3b88c171	0.0041734506
146	0x3b913b26	0.0044321
147	0x3b9338f2	0.0044928724
148	0xbbbae2ca	-0.005703305
149	0x3bbae2c8	0.005703304

exp_avg_sq f4 [30, 5]
0	0x37d2ec14	2.5143883e-05
1	0x381a6f2d	3.682e-05
2	0x38946b1d	7.077141e-05
3	0x385e004b	5.2929197e-05
4	0x385e004b	5.2929197e-05
5	0x3792ad27	1.7485187e-05
6	0x37a785f6	1.9970332e-05
7	0x37c5d65a	2.3584045e-05
8	0x3757ce9e	1.2863105e-05
9	0x3757ce9e	1.2863105e-05
10	0x37fa2514	2.9819588e-05
11	0x37fdab85	3.023982e-05
12	0x383ad659	4.4545483e-05
13	0x37e8b346	2.7740036e-05
14	0x37e8b346	2.7740036e-05
15	0x37351234	1.0792679e-05
16	0x375eba31	1.3275582e-05
17	0x37509425	1.2432259e-05
18	0x3705be84	7.971776e-06
19	0x3705be84	7.971776e-06
20	0x37181904	9.06573e-06
21	0x3704dffc	7.9199635e-06
22	0x3785cb32	1.5949456e-05
23	0x37032ee5	7.819127e-06
24	0x37032ee5	7.819127e-06
25	0x00000000	0.0
26	0x2d2c51ab	9.795202e-12
27	0x00000000	0.0
28	0x2d002e23	7.286202e-12
29	0x2d002e23	7.286202e-12
30	0x00000000	0.0
31	0x00000000	0.0
32	0x00000000	0.0
33	0x00000000	0.0
34	0x00000000	0.0
35	0x37c187c7	2.307062e-05
36	0x37f901dc	2.9683979e-05
37	0x382d9919	4.1388997e-05
38	0x37b7f112	2.1927557e-05
39	0x37b7f112	2.1927557e-05
40	0x37b86d47	2.1985396e-05
41	0x3793af0e	1.7605282e-05
42	0x383aeae7	4.4564626e-05
43	0x379a6ee4	1.8409868e-05
44	0x379a6ee4	1.8409868e-05
45	0x37adb96d	2.0709553e-05
46	0x380136f9	3.0807194e-05
47	0x38054be1	3.178034e-05
48	0x387242ce	5.7759513e-05
49	0x387242ce	5.7759513e-05
50	0x3671a06a	3.6005172e-06
51	0x366888a1	3.4650222e-06
52	0x368c8727	4.188059e-06
53	0x363d7c7f	2.823566e-06
54	0x363d7c7f	2.823566e-06
55	0x372f73f0	1.0457807e-05
56	0x376b0dc6	1.4010298e-05
57	0x37831dc7	1.5630283e-05
58	0x37235aba	9.736681e-06
59	0x37235aba	9.736681e-06
60	0x386047ad	5.3472515e-05
61	0x385f66fd	5.326326e-05
62	0x38cf7c65	9.8936995e-05
63	0x388f5c3b	6.8359506e-05
64	0x388f5c3b	6.8359506e-05
65	0x3898dae1	7.288694e-05
66	0x38b9fac5	8.868197e-05
67	0x38bfeaf6	9.1513546e-05
68	0x38845395	6.309819e-05
69	0x38845395	6.309819e-05
70	0x38477cb0	4.756142e-05
71	0x38863fc9	6.401499e-05
72	0x38cee18a	9.8648554e-05
73	0x384d29b1	4.8914637e-05
74	0x384d29b1	4.8914637e-05
75	0x00000000	0.0
76	0x00000000	0.0
77	0x00000000	0.0
78	0x00000000	0.0
79	0x00000000	0.0
80	0x36efa345	7.141762e-06
81	0x3834c28c	4.309653e-05
82	0x3810733b	3.4439592e-05
83	0x38025b11	3.1079227e-05
84	0x38025b11	3.1079227e-05
85	0x3609009e	2.041495e-06
86	0x35f5c1b2	1.8310295e-06
87	0x364858b0	2.9853945e-06
88	0x35a7aa34	1.2492005e-06
89	0x35a7aa34	1.2492005e-06
90	0x380001bd	3.0519197e-05
91	0x37f2baa8	2.8935567e-05
92	0x38513ee8	4.988807e-05
93	0x37d8ba7d	2.5836047e-05
94	0x37d8ba7d	2.5836047e-05
95	0x00000000	0.0
96	0x00000000	0.0
97	0x00000000	0.0
98	0x00000000	0.0
99	0x00000000	0.0
100	0x38c8f2e6	9.5819865e-05
101	0x3928703e	0.00016063542
102	0x392b628d	0.00016344544
103	0x38ccb69c	9.761492e-05
104	0x38ccb69c	9.761492e-05
105	0x382e0f60	4.1499152e-05
106	0x388b8c34	6.6541514e-05
107	0x3914849b	0.00014163779
108	0x38ab00c5	8.154059e-05
109	0x38ab00c5	8.154059e-05
110	0x00000000	0.0
111	0x00000000	0.0
112	0x00000000	0.0
113	0x00000000	0.0
114	0x00000000	0.0
115	0x387740c2	5.89497e-05
116	0x391cbb34	0.00014947058
117	0x3867dd28	5.528066e-05
118	0x385b9932	5.2356343e-05
119	0x385b9932	5.2356343e-05
120	0x38072beb	3.222741e-05
121	0x380a1af4	3.2926866e-05
122	0x3862ce2c	5.407461e-05
123	0x37df698f	2.6632826e-05
124	0x37df698f	2.6632826e-05
125	0x389bd998	7.431506e-05
126	0x386c2c95	5.6308305e-05
127	0x3933474f	0.00017097335
128	0x38ac84d0	8.2263374e-05
129	0x38ac84d0	8.2263374e-05
130	0x37d1ce1e	2.5010722e-05
131	0x37dcadde	2.6307007e-05
132	0x38356c9d	4.3254917e-05
133	0x37ab15de	2.0394971e-05
134	0x37ab15de	2.0394971e-05
135	0x379cd141	1.869409e-05
136	0x37fb7a84	2.9978582e-05
137	0x37e6cf19	2.7514574e-05
138	0x37b59e7e	2.1650685e-05
139	0x37b59e7e	2.1650685e-05
140	0x38153e40	3.5582343e-05
141	0x38434e7a	4.656471e-05
142	0x3817b170	3.6166457e-05
143	0x378bc49e	1.6661648e-05
144	0x378bc49e	1.6661648e-05
145	0x38212ac0	3.8425205e-05
146	0x386b9723	5.6169123e-05
147	0x38b39f05	8.565005e-05
148	0x38990b04	7.29766e-05
149	0x38990b04	7.29766e-05

exp_avg f4 [30]
0	0x3bfaed96	0.007657717
1	0x3b3b0338	0.0028535854
2	0xb9e43177	-0.00043524403
3	0x3b3a6d0d	0.0028446347
4	0x398feda2	0.00027452136
5	0x00000004	6e-45
6	0x00000000	0.0
7	0x3b61e305	0.003446759
8	0x39e68608	0.0004396888
9	0x3accb1c9	0.0015616949
10	0xb88120d4	-6.157314e-05
11	0x3a8536b9	0.0010163403
12	0xbad21dac	-0.0016030571
13	0xbc677ae7	-0.014128423
14	0x3c23ae3d	0.009990272
15	0x00000000	0.0
16	0xbb95b0b4	-0.004568184
17	0xb80c2a00	-3.3417717e-05
18	0xb97dcb80	-0.0002420377
19	0x00000000	0.0
20	0xbc912f2a	-0.017722685
21	0xbc7f2903	-0.015573743
22	0x00000000	0.0
23	0x3c8d7792	0.01726893
24	0x3b370b36	0.0027930266
25	0x3ab77ab8	0.0013998365
26	0x3b0bea86	0.0021349504
27	0x3b12139c	0.002228952
28	0xbb2df778	-0.0026545208
29	0x3c575e59	0.013145053

exp_avg_sq f4 [30]
0	0x399b18e7	0.00029582458
1	0x389e2dea	7.542579e-05
2	0x3911a118	0.0001388829
3	0x384759cc	4.7528927e-05
4	0x38387a82	4.3983113e-05
5	0x2d2c51ab	9.795202e-12
6	0x00000000	0.0
7	0x391212e7	0.00013930687
8	0x38ddddc1	0.00010579406
9	0x39b8d5e2	0.0003525457
10	0x3697a7ea	4.5196985e-06
11	0x3866098f	5.4845175e-05
12	0x39a88f92	0.00032150425
13	0x39c9f145	0.00038517467
14	0x39b09d81	0.00033686685
15	0x00000000	0.0
16	0x39747614	0.00023313641
17	0x36ec7474	7.046905e-06
18	0x3910d71c	0.00013813045
19	0x00000000	0.0
20	0x3a527992	0.00080289796
21	0x3a2ae7f7	0.0006519551
22	0x00000000	0.0
23	0x3a149f94	0.0005669531
24	0x39256ff5	0.00015777333
25	0x39f29f9f	0.00046276764
26	0x3902688f	0.00012436717
27	0x38f5bdaa	0.00011717838
28	0x386e8508	5.6867517e-05
29	0x39cc39ab	0.00038952878

exp_avg f4 [3, 30]
0	0xbb1adc0f	-0.00236297
1	0xbbacf117	-0.0052777636
2	0xba08f663	-0.0005224703
3	0xbbcff0b1	-0.0063458313
4	0xbb6a77ae	-0.00357769
5	0x00000000	0.0
6	0x00000000	0.0
7	0xbbe5f6eb	-0.0070179603
8	0xbb7e7e8a	-0.0038832747
9	0xb78ac946	-1.6544607e-05
10	0xb9b2c04d	-0.0003409408
11	0xba96ff91	-0.0011520257
12	0x39659708	0.00021895405
13	0xb9e4f964	-0.0004367336
14	0xbbe4e8c8	-0.0069857575
15	0x00000000	0.0
16	0xb9a9e403	-0.00032404074
17	0xbb80181b	-0.0039091236
18	0xba4add70	-0.0007738685
19	0x00000000	0.0
20	0xbbf09531	-0.0073420038
21	0xbbc32bda	-0.0059561552
22	0x00000000	0.0
23	0xbbdd4bba	-0.006753412
24	0xbb92c718	-0.0044793
25	0xbb65ddf0	-0.0035074912
26	0xbb8ff958	-0.0043937378
27	0xba8b9ff4	-0.0010652528
28	0xb9d65622	-0.00040881435
29	0xbb8ffdcf	-0.00439427
30	0xbaf41655	-0.0018622378
31	0xb9084004	-0.00012993818
32	0x3b1ff776	0.0024408973
33	0xbac881cf	-0.0015297475
34	0xba1f8b04	-0.00060860836
35	0x00000000	0.0
36	0x00000000	0.0
37	0xbb221724	-0.0024733031
38	0xb9cb93c0	-0.0003882926
39	0x3b0f714d	0.00218876
40	0x388e04e6	6.772e-05
41	0x3aa8d143	0.0012879748
42	0x3b5b44aa	0.0033457675
43	0x3b42c875	0.0029721532
44	0xbbfd3505	-0.0077272677
45	0x00000000	0.0
46	0xba077cad	-0.00051684194
47	0xbabcc80b	-0.0014402879
48	0x3b38e9e4	0.0028215582
49	0x00000000	0.0
50	0xbbf2cd8e	-0.007409758
51	0xbc044808	-0.008073814
52	0x00000000	0.0
53	0xbbfe5e08	-0.0077626742
54	0x3a69ce67	0.0008919001
55	0xbb1afa23	-0.0023647628
56	0xba3c2b7c	-0.00071781105
57	0x3a4373b6	0.0007455902
58	0x3a0be004	0.000533581
59	0xbb72fae8	-0.0037075821
60	0xba8abc63	-0.0010584708
61	0xbc1dd312	-0.009632843
62	0xb9a6df46	-0.0003182834
63	0xbc2a808b	-0.010406624
64	0xbbf6a578	-0.0075270496
65	0x00000004	6e-45
66	0x00000000	0.0
67	0xbc38f5d5	-0.01128908
68	0xbbe409ae	-0.0069591617
69	0xbb526feb	-0.0032110165
70	0xb8c1dbf4	-9.2439266e-05
71	0xba8b09ab	-0.001060774
72	0xb9d2db76	-0.00040217832
73	0xbb1a2997	-0.0023523325
74	0xbb415469	-0.0029499775
75	0x00000000	0.0
76	0xbb34daaf	-0.0027596166
77	0xbbd0881a	-0.006363881
78	0xbaa71ed3	-0.0012750275
79	0x00000000	0.0
80	0xbc1e9967	-0.009680129
81	0xbba909d1	-0.005158641
82	0x00000000	0.0
83	0xbb382aed	-0.0028101758
84	0xbc12b586	-0.008954411
85	0xbbbf805c	-0.005844159
86	0xbbde082e	-0.0067758774
87	0xba2adfe8	-0.000651835
88	0xb8a9ca52	-8.096233e-05
89	0xbb06fe1b	-0.0020598236

exp_avg_sq f4 [3, 30]
0	0x382e1925	4.150825e-05
1	0x3956afcd	0.00020474121
2	0x38e971a4	0.00011131473
3	0x39c0d599	0.00036780236
4	0x38f56fe3	0.00011703351
5	0x00000000	0.0
6	0x00000000	0.0
7	0x39ca528b	0.00038589942
8	0x39195faf	0.00014626862
9	0x3813108c	3.506294e-05
10	0x364871f4	2.9868652e-06
11	0x38f19880	0.00011520181
12	0x38b8b8b5	8.808208e-05
13	0x37a62d7c	1.9809922e-05
14	0x39315434	0.00016911404
15	0x00000000	0.0
16	0x3802d067	3.1188505e-05
17	0x392024e1	0.00015272528
18	0x38842ae3	6.302239e-05
19	0x00000000	0.0
20	0x3931cb83	0.0001695585
21	0x39700829	0.00022891223
22	0x00000000	0.0
23	0x3918ba70	0.00014565303
24	0x3997d2eb	0.0002895811
25	0x38c050b5	9.170306e-05
26	0x39068c24	0.00012831442
27	0x3921ea0c	0.00015441346
28	0x36006111	1.9129986e-06
29	0x38b318d3	8.540009e-05
30	0x38655db3	5.468512e-05
31	0x39d24452	0.00040105224
32	0x398ccdf2	0.00026856322
33	0x3a365ba8	0.0006956407
34	0x39b2d670	0.00034110574
35	0x00000000	0.0
36	0x00000000	0.0
37	0x3a4de5bf	0.0007854364
38	0x39efb63b	0.00045721405
39	0x3813d9ee	3.5250494e-05
40	0x34b1deca	3.313092e-07
41	0x3988d092	0.00026095338
42	0x397c52d9	0.00024063456
43	0x38081f0c	3.245384e-05
44	0x39b86451	0.00035169956
45	0x00000000	0.0
46	0x38edb6a2	0.00011335059
47	0x39e72151	0.00044084576
48	0x396f5b2d	0.00022826782
49	0x00000000	0.0
50	0x39ca0043	0.00038528637
51	0x3a26f550	0.0006368952
52	0x00000000	0.0
53	0x39b214f8	0.0003396643
54	0x3a145aa2	0.00056592573
55	0x3a2a8cd5	0.0006505971
56	0x39854825	0.0002542149
57	0x39ae07dd	0.00033193725
58	0x36fb915f	7.4973063e-06
59	0x392066ea	0.00015297128
60	0x37e2fbd9	2.7058575e-05
61	0x39b84159	0.00035143903
62	0x39317a4f	0.00016925599
63	0x39d341f4	0.00040294195
64	0x39452ccc	0.00018804072
65	0x2c521819	2.9856172e-12
66	0x00000000	0.0
67	0x39e8efcd	0.00044429154
68	0x39657ee3	0.00021886411
69	0x38f7b268	0.000118111086
70	0x3469b82e	2.176682e-07
71	0x391199d2	0.0001388558
72	0x395a371c	0.0002081063
73	0x391d7775	0.00015017188
74	0x39109143	0.00013787024
75	0x00000000	0.0
76	0x3877aee1	5.9052258e-05
77	0x3928bb77	0.00016091565
78	0x391bdaae	0.00014863416
79	0x00000000	0.0
80	0x39af4fcb	0.00033438051
81	0x39549bd1	0.00020275942
82	0x00000000	0.0
83	0x391b7d6d	0.00014828677
84	0x39c15fa6	0.00036883092
85	0x3917326b	0.00014419264
86	0x39368cb8	0.00017409294
87	0x391e17b5	0.00015076886
88	0x3707f530	8.103714e-06
89	0x38a3d6a7	7.812428e-05

exp_avg f4 [3]
0	0xbb601b3c	-0.003419592
1	0x3b66fbac	0.0035245223
2	0xbc336a63	-0.010950658

exp_avg_sq f4 [3]
0	0x39ac7047	0.0003289005
1	0x3a3a782f	0.00071132457
2	0x3a12edce	0.00056048937
